botched_RL/agent.pth (torch, 134516 bytes, 6 tensors)

fc1.weight f4 [128, 64]
-0.007698044 0.074687675 -0.00134556 -0.12068716 -0.062187985 0.05733192 0.06658591 -0.10478921
0.07775277 0.10436669 0.047884926 -0.110354304 0.0569136 0.08075775 0.09126975 0.10396162
-0.119906574 -0.05900888 -0.029623926 -0.060387433 0.06300293 0.11534388 0.03124918 0.020402685
-0.11868644 -0.07139711 0.055363208 0.07444653 -0.0015188754 0.06919029 0.09522599 0.028226629
0.06738742 -0.10916141 -0.010442689 -0.05680476 -0.023844436 0.017120942 -0.1148051 -0.04865995
-0.04832624 -0.10880563 0.08471133 -0.11899455 -0.03851217 -0.10110065 -0.06174074 0.056567475
-0.065185085 0.08141166 0.12274973 0.052019 -0.00034238398 -0.059597373 -0.031107888 0.06802422
-0.016023189 0.04222387 0.024294779 0.031165853 -0.11354953 -0.12112334 -0.03445612 -0.07355936
-0.0865418 -0.010180429 -0.044237986 0.027757153 -0.058275297 0.10609156 0.021897405 0.08282198
0.09281604 -0.0257584 0.09433831 0.043507293 -0.11980887 -0.035005003 0.027850702 -0.04535462
-0.09056319 0.11918704 -0.0003413111 0.0092962235 -0.000250116 0.09005031 0.05754873 0.10411291
0.057541728 0.051346287 -0.08405699 0.058860734 0.026863575 0.03219171 -0.020133317 0.015272588
0.095657766 0.117296964 -0.11929315 -0.009933174 -0.04294969 0.07277475 0.11632517 -0.049442396
-0.06803374 -0.10923231 -0.057325453 -0.08041163 0.100565106 -0.11402856 0.014202282 0.08955473
-0.0716712 0.0776294 0.08647755 -0.00050480664 0.020067155 -0.11370954 -0.062658936 -0.05826986
0.09985438 0.09686743 -0.11150864 -0.06352976 0.034581527 0.057249486 -0.056570232 0.093180135
0.12348214 0.03396626 -0.100551575 0.10277367 -0.11063407 0.0022601485 -0.10894579 0.05731669
0.10248488 -0.078256756 -0.12373176 -0.07428262 -0.086517274 0.029816508 0.08631237 0.096659854
0.08618654 -0.10031128 -0.013711527 0.030592814 -0.01980789 0.047298953 -0.1157939 -0.06528953
-0.056690037 -0.07462852 -0.0056550205 0.08822638 0.025863752 -0.10021533 -0.048670754 -0.026726156
0.06590395 0.045449793 -0.11112067 0.05678545 -0.11928661 0.027599901 0.041348547 -0.10160191
-0.06877288 0.06280063 -0.005399838 0.09126818 0.08122957 -0.04432577 -0.11611754 -0.045964405
-0.053217486 0.11534837 0.09413539 -0.014228493 0.0010691732 -0.07361248 -0.11190516 -0.111108705
-0.04490049 -0.10928567 -0.0117127 0.057369888 -0.09860237 0.035868183 -0.040153712 0.0993896
0.0019712448 0.072353885 0.052852497 -0.07999964 0.11811292 0.0116965175 -0.11163972 -0.030784637
0.072877064 0.0117394775 0.09006135 0.04728593 -0.111401096 -0.02459012 -0.015472606 -0.032818258
-0.05668217 0.08670512 0.10621025 0.06057529 -0.08883852 -0.11146967 0.05280961 0.07777868
-0.10157336 -0.049475327 0.032785088 0.06625618 -0.07392782 0.122134 -0.034082636 0.12368436
-0.053232566 0.024781272 0.057753786 -0.018509448 0.0037492514 -0.01442185 -0.091887325 0.02195552
0.07952149 -0.028379828 0.027984738 -0.03439164 0.10978225 0.022968024 0.07095674 -0.08002907
0.10483876 0.08342858 0.055605948 0.000966385 -0.014868274 0.11352381 0.11360954 -0.058543384
0.015173718 0.08044739 -0.006181434 0.113490626 0.11696635 0.050183997 0.08695161 0.1125453
00000000: e03f fcbb daf5 983d 805d b0ba d42a f7bd
00000010: d4b8 7ebd e0d4 6a3d 325e 883d ba9b d6bd
00000020: d83c 9f3d 34be d53d fc22 443d 7001 e2bd
00000030: 3c1e 693d 5264 a53d a2eb ba3d d4e9 d43d
00000040: 9491 f5bd 4cb3 71bd e0ad f2bc d058 77bd
00000050: ae07 813d 6a39 ec3d 48fe ff3c 8823 a73c
00000060: e011 f3bd a638 92bd 88c4 623d 6c77 983d
00000070: 0015 c7ba a4b3 8d3d d805 c33d 883b e73c
00000080: 6a02 8a3d 0490 dfbd d017 2bbc 1cac 68bd
00000090: 6855 c3bc 3841 8c3c f01e ebbd a84f 47bd
000000a0: bcf1 45bd 7cd5 debd 227d ad3d 6ab3 f3bd
000000b0: f0be 1dbd dc0d cfbd dce3 7cbd 4cb3 673d
000000c0: c27f 85bd 28bb a63d 3664 fb3d e011 553d
000000d0: 0082 b3b9 601c 74bd f8d5 febc 4850 8b3d
000000e0: 1043 83bc f0f2 2c3d d805 c73c 884f ff3c
000000f0: a88c e8bd 840f f8bd dc21 0dbd 4aa6 96bd
00000100: d43c b1bd d0cb 26bc e432 35bd f862 e33c
00000110: 14b2 6ebd 8846 d93d 3062 b33c 929e a93d
00000120: 5616 be3d 4803 d3bc 7234 c13d b434 323d
00000130: 5a5e f5bd 6861 0fbd 2827 e43c c4c5 39bd
00000140: 3279 b9bd 5618 f43d 00f2 b2b9 304f 183c
00000150: 0022 83b9 4c6c b83d 38b8 6b3d 2639 d53d
00000160: e0b0 6b3d 7c50 523d 1226 acbd f417 713d
00000170: 0011 dc3c 74db 033d a0ee a4bc e039 7a3c
00000180: 38e8 c33d 6439 f03d f84f f4bd c0be 22bc
00000190: 04ec 2fbd ee0a 953d e43b ee3d 1c84 4abd
000001a0: 4655 8bbd 30b5 dfbd 18ce 6abd daae a4bd
000001b0: 14f5 cd3d ce87 e9bd b0b0 683c 7868 b73d
000001c0: 5ac8 92bd 2afc 9e3d 241b b13d 0055 04ba
000001d0: e063 a43c 8ce0 e8bd 5453 80bd 60ac 6ebd
000001e0: 7480 cc3d 6e62 c63d a45e e4bd e41b 82bd
000001f0: 5ca5 0d3d 707e 6a3d 30b6 67bd 3ad5 be3d
00000200: 34e4 fc3d 3420 0b3d fced cdbd 007b d23d
00000210: 1e94 e2bd 001f 143b f81e dfbd e8c4 6a3d
00000220: 98e3 d13d 1445 a0bd 1467 fdbd 7c21 98bd
00000230: f82f b1bd c041 f43c 8ac4 b03d 9af5 c53d
00000240: 9282 b03d 0070 cdbd 50a6 60bc c89d fa3c
00000250: 2844 a2bc 8cbc 413d 5a25 edbd 84b6 85bd
00000260: d033 68bd d6d6 98bd c04d b9bb 08b0 b43d
00000270: 38e0 d33c b23d cdbd fc5a 47bd d0f0 dabc
00000280: a6f8 863d 9029 3a3d 3c93 e3bd dc97 683d
00000290: 8a4c f4bd 3019 e23c 185d 293d aa14 d0bd
000002a0: ccd8 8cbd 9e9d 803d 20f1 b0bb d0ea ba3d
000002b0: b05b a63d f08e 35bd 08cf edbd 2c45 3cbd
000002c0: 94fa 59bd c43b ec3d 0eca c03d a01e 69bc
000002d0: 8023 8c3a 24c2 96bd 882e e5bd f68c e3bd
000002e0: 94e9 37bd 2ad1 dfbd a0e6 3fbc b0fc 6a3d
000002f0: 0af0 c9bd 84ea 123d 3878 24bd c68c cb3d
00000300: 0030 013b 462e 943d dc7b 583d dad6 a3bd
00000310: 30e5 f13d c0a2 3f3c 5ea3 e4bd 1030 fcbc
00000320: 9240 953d f056 403c 1672 b83d e4ae 413d
00000330: 4226 e4bd 3871 c9bc d080 7dbc 706c 06bd
00000340: 902b 68bd 7492 b13d c284 d93d cc1d 783d
00000350: f8f0 b5bd 364a e4bd e44e 583d 6e4a 9f3d
00000360: b205 d0bd a4a6 4abd a849 063d 52b1 873d
00000370: 7867 97bd 6421 fa3d 3c9a 0bbd 3a4e fd3d
00000380: 640a 5abd 1802 cb3c 3c8f 6c3d 20a1 97bc
00000390: 00b6 753b a049 6cbc 6c2f bcbd 10dc b33c
000003a0: 2adc a23d d07c e8bc 4040 e53c 40de 0cbd
000003b0: 84d5 e03d 7027 bc3c c451 913d 48e6 a3bd
000003c0: b4b5 d63d 9adc aa3d 10c3 633d 0055 7d3a
000003d0: 109a 73bc 2c7f e83d 1eac e83d 30cb 6fbd
000003e0: 309b 783c 9ac1 a43d a08d cabb c66d e83d
000003f0: 0e8c ef3d bc8d 4d3d b013 b23d 267e e63d

fc1.bias f4 [128]
-0.059076875 -0.069246605 0.0066134334 -0.120318055 0.09916256 -0.123902455 -0.073124915 0.005507201
-0.029614106 0.034671217 0.038298175 0.013033435 0.018806428 0.05341813 0.002658099 0.028024018
-0.061721683 0.063542664 -0.017131463 -0.045906067 -0.008356005 0.030785963 -0.07662363 0.112105295
0.010763794 0.028621078 0.02608028 0.090392575 -0.028546318 -0.01523076 0.091611475 0.09471583
0.069942966 0.11500129 -0.0043846965 -0.11503518 -0.061528057 -0.075408354 -0.010465518 -0.09416768
0.00016209483 0.015145421 -0.07685989 0.109367535 0.089743465 -0.09948179 -0.075368285 0.08906378
0.082986236 -0.10109225 -0.10955264 -0.066634625 -0.011303186 0.03041403 0.12119642 -0.028913632
0.12254323 -0.04591912 -0.04075803 0.058004677 -0.10607275 -0.12324859 0.0903195 -0.09104729
-0.100417316 -0.10006885 0.0637593 -0.037826076 -0.12217069 -0.053274408 -0.081868425 0.05398956
-0.03231807 0.012216032 -0.09640443 0.12029871 0.057666093 -0.084002346 0.11046575 -0.07040931
-0.030994698 0.041432783 -0.08645423 0.10343838 -0.0035762638 0.003679946 -0.044343278 0.10628775
0.0039746165 0.052851528 0.03009817 0.020760015 -0.0018709153 -0.0921963 -0.0028447807 -0.101434276
-0.027005121 -0.010244191 0.088122845 0.028984696 -0.097894415 -0.057803288 0.099367514 0.09357938
0.11475478 0.11015947 0.02300872 0.044246152 -0.11332598 0.004586309 -0.10467388 -0.09824832
0.10421781 -0.058235213 0.020785064 -0.0016410798 0.007390946 0.08717416 -0.0054035634 -0.012430489
0.085022226 0.03833686 -0.032823533 -0.08617821 0.010778829 -0.024616763 -0.033983454 0.050435573
00000000: 98fa 71bd 2ad1 8dbd 80b5 d83b 5069 f6bd
00000010: be15 cb3d 92c0 fdbd 84c2 95bd c075 b43b
00000020: 4899 f2bc 6803 0e3d 8cde 1c3d 308a 553c
00000030: f00f 9a3c f8cc 5a3d 8033 2e3b a092 e53c
00000040: e0cf 7cbd a822 823d 4857 8cbc 0008 3cbd
00000050: a0e7 08bc d832 fc3c daec 9cbd 7697 e53d
00000060: a05a 303c c076 ea3c 50a6 d53c be1f b93d
00000070: f8d9 e9bc 708a 79bc cc9e bb3d 60fa c13d
00000080: 423e 8f3d cc85 eb3d 80ad 8fbb 9097 ebbd
00000090: d804 7cbd b26f 9abd 9077 2bbc fcda c0bd
000000a0: 00f8 2939 8024 783c b868 9dbd 16fc df3d
000000b0: 6ccb b73d 1cbd cbbd b05a 9abd 1267 b63d
000000c0: b0f4 a93d 7409 cfbd 225d e0bd bc77 88bd
000000d0: 0031 39bc d826 f93c d435 f83d 48dc ecbc
000000e0: f2f7 fa3d b015 3cbd e4f1 26bd 5096 6d3d
000000f0: ac3c d9bd c269 fcbd 6ef9 b83d 0077 babd
00000100: 98a7 cdbd e6f0 ccbd 3c94 823d 84ef 1abd
00000110: a034 fabd 4436 5abd a2aa a7bd 2824 5d3d
00000120: f45f 04bd c025 483c b06f c5bd 2c5f f63d
00000130: 4833 6c3d 6c09 acbd de3b e23d c232 90bd
00000140: 98e8 fdbc 6cb5 293d ea0e b1bd 80d7 d33d
00000150: c05f 6abb 402b 713b 4ca1 35bd 64ad d93d
00000160: 803d 823b d87a 583d 7090 f63c e810 aa3c
00000170: 8039 f5ba 6ad1 bcbd 806f 3abb c6bc cfbd
00000180: d839 ddbc 40d7 27bc c079 b43d 5071 ed3c
00000190: de7c c8bd 24c3 6cbd 3281 cb3d 8ca6 bf3d
000001a0: 8e04 eb3d 4a9b e13d c87c bc3c 743b 353d
000001b0: 7417 e8bd c048 963b 425f d6bd 6a36 c9bd
000001c0: 2670 d53d 0c88 6ebd 7045 aa3c 8019 d7ba
000001d0: c02f f23b 5e88 b23d 6010 b1bb 40a9 4bbc
000001e0: 2220 ae3d 1c07 1d3d f871 06bd 347e b0bd
000001f0: b099 303c 18a9 c9bc 3c32 0bbd 8895 4e3d

fc2.weight f4 [128, 128]
-0.077638455 -0.035142515 0.046495676 -0.024154749 0.057972588 -0.057491165 -0.0026183308 0.0029048135
0.06473237 0.045531176 -0.0023485804 -0.04361595 -0.0034450728 0.08284208 -0.024904888 -0.020426491
0.06559826 0.055286538 0.014580428 0.043533828 0.010377091 0.0048200716 0.050238032 -0.06657018
-0.07845489 0.086368635 -0.08326505 -0.05260936 -0.0376353 -0.042953264 0.07715025 -0.030006995
-0.000359913 0.02483759 0.0770549 0.07167577 -0.004508122 0.010462333 0.046674915 -0.01862776
-0.06401811 0.032342553 -0.065716736 -0.04084589 0.0065945066 0.03858567 -0.08829614 0.0202276
-0.028196199 0.013492554 -0.01224701 0.07704189 0.039054796 -0.0027665612 -0.03959595 0.022175891
0.049321022 -0.08373855 0.055960003 0.07362108 0.06745757 0.009784454 -0.020202195 0.016008796
-0.044124134 -0.028506516 -0.0028928437 0.07153065 -0.014051527 0.03370184 -0.03820851 -0.08019401
-0.0087220585 0.06369213 -0.009757533 0.043541454 0.074942574 0.012643033 -0.029969137 -0.018525932
0.055071317 -0.06654865 -0.015194107 -0.029315682 0.005363924 0.023902996 -0.055417616 0.04219323
0.055543162 -0.05520141 0.012533587 -0.019459095 0.041366342 -0.02582015 0.04128584 -0.056217287
0.06648822 -0.035929367 0.02107493 -0.055706944 -0.009171765 -0.0074352096 -0.067886226 -0.08658146
0.0795401 0.066448666 0.02792175 0.037738774 -0.0709403 0.07165293 0.018833645 -0.033179875
-0.009160322 -0.008746725 0.0019974445 0.07442122 -0.07179191 0.07880195 0.011167861 -0.079238266
0.06948717 -0.08665283 0.02997233 -0.037435304 0.06477309 0.023621043 -0.024641123 -0.017351583
-0.0400659 0.048058774 -0.08493291 0.08294097 0.07427534 0.03509858 -0.017149363 0.056302447
0.0708453 -0.035355262 -0.081362404 0.029587561 -0.040299244 0.06037907 -0.03719392 -0.01189462
-0.004439233 0.063811146 -0.07349234 -0.060950708 0.014535657 -0.018633015 -0.009493167 0.08735504
-0.035505433 0.0829261 0.034011316 -0.006089155 0.08401854 -0.082328156 -0.05427416 0.020037971
-0.08436819 -0.042029966 0.08383656 -0.057258464 -0.060171675 0.056660306 -0.07361667 0.087007456
0.0607346 -0.018351158 0.053079814 0.0023640483 -0.075482294 -0.04236169 0.01798896 -0.037925463
0.08012524 0.026961328 0.03064413 0.044953607 -0.045296356 0.06077962 -0.06409744 0.047270082
0.056016196 0.013894088 0.024261864 -0.01089811 0.025249997 -0.08329541 0.06190328 0.0371034
0.06823341 0.039490595 -0.033557754 0.031048687 0.070128284 0.05976663 0.0062223077 -0.033652857
0.0044036396 0.07249281 0.07454582 0.049414136 -0.012814918 0.08025006 0.07675382 -0.0012936975
0.013907564 0.029017862 -0.06858003 -0.030234547 -0.010314566 -0.021779763 -0.025611343 0.04271883
-0.07294825 0.03385689 -0.07390071 -0.016953306 0.08121164 0.0076065892 0.045950044 0.012472517
-0.08122517 0.011836395 0.057869844 0.06999227 0.07108795 0.04921277 0.08271871 0.0053464225
-0.05437488 0.01127563 0.07569667 -0.08598961 0.022813847 -0.055968855 -0.08805025 0.0041965614
0.07005023 0.048608392 -0.026329493 0.0052803573 -0.021175303 0.03415456 0.0704066 -0.034570258
-0.072078064 -0.022787621 -0.08170826 -0.05883096 0.061115067 -0.012364852 -0.032193933 -0.01278884
00000000: e900 9fbd 99f1 0fbd 4072 3e3d 2ee0 c5bc
00000010: aa74 6d3d db7b 6bbd 4d98 2bbb af5e 3e3b
00000020: 6892 843d e67e 3a3d a4ea 19bb a3a6 32bd
00000030: bbc6 61bb 1ca9 a93d 5605 ccbc 7555 a7bc
00000040: 6158 863d 2374 623d bfe2 6e3c 8750 323d
00000050: ad04 2a3c b1f1 9d3b 65c6 4d3d f255 88bd
00000060: f5ac a0bd 0ae2 b03d de86 aabd ea7c 57bd
00000070: 7927 1abd c3ef 2fbd f300 9e3d 3bd1 f5bc
00000080: b5b2 bcb9 3478 cb3c f6ce 9d3d bfca 923d
00000090: deb8 93bb 356a 2b3c 322e 3f3d 3e99 98bc
000000a0: ed1b 83bd a079 043d 7f96 86bd 054e 27bd
000000b0: bb16 d83b 020c 1e3d 9bd4 b4bd 5ab4 a53c
000000c0: b7fb e6bc e00f 5d3c afa7 48bc 23c8 9d3d
000000d0: ecf7 1f3d 324f 35bb 5d2f 22bd 37aa b53c
000000e0: d704 4a3d 1e7f abbd 5136 653d a6c6 963d
000000f0: 3227 8a3d f94e 203c 137f a5bc e124 833c
00000100: 82bb 34bd 7f86 e9bc dd95 3dbb a97e 923d
00000110: 6038 66bc f10a 0a3d 8780 1cbd c23c a4bd
00000120: f7e6 0ebc 0571 823d 0fde 1fbc 8658 323d
00000130: 7e7b 993d b924 4f3c d681 f5bc b2c3 97bc
00000140: 7692 613d a94a 88bd b4f0 78bc 7127 f0bc
00000150: dbc3 af3b 37d0 c33c 95fd 62bd cfd2 2c3d
00000160: 3a81 633d e01a 62bd ad59 4d3c ae68 9fbc
00000170: c16f 293d c784 d3bc 571b 293d 1944 66bd
00000180: fa2a 883d ac2a 13bd 55a5 ac3c f72c 64bd
00000190: 2c45 16bc 0fa3 f3bb ef07 8bbd 9f51 b1bd
000001a0: ece5 a23d 3d16 883d 27bc e43c f993 1a3d
000001b0: 2649 91bd c5be 923d 0449 9a3c 9fe7 07bd
000001c0: 2d15 16bc 6c4e 0fbc 8fe7 023b 276a 983d
000001d0: a307 93bd eb62 a13d 67f9 363c ac47 a2bd
000001e0: 4a4f 8e3d 0a77 b1bd 8888 f53c c355 19bd
000001f0: c1a7 843d eb80 c13c 2edc c9bc e824 8ebc
00000200: 241c 24bd 47d9 443d 4ef1 adbd f5dc a93d
00000210: ab1d 983d 87c3 0f3d d27c 8cbc 659d 663d
00000220: 5717 913d aed0 10bd 55a1 a6bd 9d61 f23c
00000230: d210 25bd 0b50 773d a758 18bd a7e1 42bc
00000240: fc76 91bb 6baf 823d 2783 96bd 73a7 79bd
00000250: f726 6e3c 44a4 98bc 3a89 1bbc 33e7 b23d
00000260: 256e 11bd 29d5 a93d 734f 0b3d 8987 c7bb
00000270: ea11 ac3d aa9b a8bd 954e 5ebd ac26 a43c
00000280: 3bc9 acbd 9d27 2cbd 81b2 ab3d da87 6abd
00000290: 9376 76bd a314 683d 56c4 96bd f730 b23d
000002a0: d8c4 783d 2b55 96bc 386a 593d 26ee 1a3b
000002b0: 7696 9abd 7483 2dbd 955d 933c bb57 1bbd
000002c0: b418 a43d 01de dc3c 6609 fb3c 4621 383d
000002d0: ac88 39bd 0df4 783d 8545 83bd 469e 413d
000002e0: 3d71 653d 07a4 633c d1c0 c63c fd8d 32bc
000002f0: 15d9 ce3c c996 aabd 4b8e 7d3d bcf9 173d
00000300: f5bd 8b3d e4c0 213d db73 09bd d159 fe3c
00000310: 6b9f 8f3d dbcd 743d 80e4 cb3b 94d7 09bd
00000320: 684c 903b 1c77 943d 7bab 983d 7a66 4a3d
00000330: a9f5 51bc 255a a43d 1b31 9d3d 4991 a9ba
00000340: 8ddc 633c deb6 ed3c b073 8cbd 71ae f7bc
00000350: 6dfe 28bc 796b b2bc e1ce d1bc f1f9 2e3d
00000360: e465 95bd 86ad 0a3d 4159 97bd a9e1 8abc
00000370: 4a52 a63d b240 f93b 1d36 3c3d 8759 4c3c
00000380: 6259 a6bd 70ed 413c ee08 6d3d 1b58 8f3d
00000390: 8f96 913d 5493 493d 6d68 a93d 0b31 af3b
000003a0: 32b8 5ebd 6cbd 383c db06 9b3d 521b b0bd
000003b0: 1be4 ba3c 993f 65bd b153 b4bd 4f83 893b
000003c0: 7f76 8f3d 9819 473d f3b0 d7bc d906 ad3b
000003d0: d477 adbc a7e5 0b3d 5631 903d 8b99 0dbd
000003e0: aa9d 93bd 1bad babc a956 a7bd bcf8 70bd
000003f0: cb53 7a3d f395 4abc c9dd 03bd 4888 51bc

fc2.bias f4 [128]
-0.049888477 0.010298625 0.018511295 0.054028485 -0.00052572927 0.013957002 0.029983627 -0.073892
-0.03386123 0.039650384 0.08256405 -0.001597239 0.038644604 -0.081380665 0.034210797 -0.00094384706
-0.0851823 -0.008943003 -0.021956969 -0.065063976 -0.04737157 -0.024557324 -0.062532395 0.011074674
0.07853125 -0.047011625 -0.02684969 -0.059231903 -0.017414466 0.01259784 -0.037221305 -0.013459701
-0.04060457 0.06296892 -0.06693318 -0.06261084 0.019846888 0.01289369 0.08509246 0.060957093
-0.042712457 -0.061217558 0.074425496 -0.06252545 0.034033824 0.08747919 0.05263768 -0.0021000826
-0.07625008 -0.028467266 -0.059497967 -0.014977799 0.050296962 0.0003255844 0.011998512 -0.03029843
-0.078738175 -0.07458471 0.03506255 0.0060546477 0.025010329 0.015252817 -0.05748812 0.02576794
0.043755002 -0.026970517 0.08591392 0.011873325 0.0831742 0.055515837 -0.063152075 -0.08828585
-0.014900397 0.07841908 0.07099229 -0.07855692 0.07864781 -0.0070235194 -0.04019232 -0.014215373
0.028179204 0.0843152 0.08156589 0.08293699 -0.042248834 -0.035555564 -0.055053096 0.0777686
-0.029623028 -0.08782359 0.04441184 0.05623341 0.047042068 -0.052300625 0.012385684 -0.04043695
0.07199416 -0.030597959 0.06407262 -0.013934801 0.061009143 -0.053000566 -0.0047904425 0.083271675
-0.06633999 -0.0017860675 -0.06627937 0.081618786 0.0035025189 -0.07231179 -0.032060612 -0.06625971
-0.035889167 -0.040220927 -0.00598363 -0.07984252 0.02441257 0.0013624495 -0.025759974 -0.079237685
-0.043667696 -0.04369764 -0.0030319178 0.023340903 -0.028612198 0.07378472 0.021298446 0.039889906
00000000: dc57 4cbd 90bb 283c 00a5 973c f94c 5d3d
00000010: 18d1 09ba e9ab 643c 39a0 f53c b054 97bd
00000020: 13b2 0abd 7168 223d 5717 a93d 735a d1ba
00000030: ce49 1e3d e8aa a6bd 9f20 0c3d 816c 77ba
00000040: 0f74 aebd ac85 12bc 1adf b3bc 4340 85bd
00000050: b108 42bd 712c c9bc fc10 80bd 8d72 353c
00000060: fed4 a03d 438f 40bd e2f3 dbbc 279d 72bd
00000070: c8a8 8ebc 2c67 4e3c 5e75 18bd 1486 5cbc
00000080: fa50 26bd d9f5 803d 4314 89bd 1d3a 80bd
00000090: f195 a23c 0e40 533c f544 ae3d 25ae 793d
000000a0: 42f3 2ebd 43bf 7abd 656c 983d 580d 80bd
000000b0: 0d67 0b3d 4a28 b33d 9c9a 573d 8aa1 09bb
000000c0: 0029 9cbd 2f34 e9bc 24b4 73bd 7165 75bc
000000d0: 3004 4e3d 33b3 aa39 6895 443c 6a34 f8bc
000000e0: 7b41 a1bd debf 98bd c09d 0f3d 1166 c63b
000000f0: 76e2 cc3c f4e6 793c aa78 6bbd 4917 d33c
00000100: 7238 333d 46f1 dcbc a3f3 af3d 5688 423c
00000110: 3c57 aa3d 9364 633d e055 81bd 36cf b4bd
00000120: cb20 74bc 2f9a a03d 6864 913d 73e2 a0bd
00000130: 1a12 a13d 8d25 e6bb b4a0 24bd 99e7 68bc
00000140: 13d8 e63c 73ad ac3d 040c a73d deda a93d
00000150: 1d0d 2dbd b6a2 11bd 5b7f 61bd 2545 9f3d
00000160: feab f2bc dbdc b3bd 31e9 353d 0155 663d
00000170: 2faf 403d 2e39 56bd 53ed 4a3c 37a1 25bd
00000180: ad71 933d 92a8 fabc 8138 833d cb4e 64bc
00000190: b9e4 793d 1f17 59bd 25f9 9cbb 578a aa3d
000001a0: 43dd 87bd 7b1a eaba 7abd 87bd c027 a73d
000001b0: 848a 653b 3418 94bd fd51 03bd 2cb3 87bd
000001c0: 8500 13bd b3be 24bd 5412 c4bb 7a84 a3bd
000001d0: dffc c73c 3894 b23a 9506 d3bc 5e47 a2bd
000001e0: e6dc 32bd 4cfc 32bd 24b3 46bb 6c35 bf3c
000001f0: 2164 eabc 711c 973d 147a ae3c 9963 233d

fc3.weight f4 [64, 128]
0.045880005 -0.026706645 -0.002124728 -0.03855659 -0.04100335 -0.076280825 -0.08425016 -0.024051372
-0.048693895 0.06636475 0.05595579 0.0042678635 -0.022063 -0.066816196 -0.038600285 -0.022704624
-0.08409927 -0.056548975 -0.069540456 0.069807984 0.08652517 0.0098024085 -0.032974828 -0.087209
-0.057274006 -0.041763186 -0.06986672 -0.038984664 0.018649992 -0.045807343 -0.008166257 -0.08502007
0.012880392 -0.005644306 0.062493693 0.0156026995 -0.056987405 -0.009456825 0.08815341 0.002652965
-0.035794917 0.06632183 0.05646132 0.06857704 -0.06563116 0.07489681 -0.013862952 -0.034048837
-0.07430205 -0.06857066 0.004904955 -0.008693177 -0.042368647 -0.047952767 -0.034950852 -0.022454986
0.052951984 -0.03728229 -0.04622389 0.03282329 0.041260447 -0.022699988 -0.02095497 -0.015871944
0.051302556 -0.08121777 -0.025714602 -0.081895456 -0.06927183 0.007002762 -0.00044646155 -0.06571274
0.04658505 -0.048652697 -0.061422613 -0.032678 0.08063801 -0.026262006 0.046140376 0.039112233
0.054859158 -0.012237432 0.05599822 0.074059926 0.016474707 -0.04928648 -0.01603029 0.0028985336
-0.086727984 0.080480985 -0.07681548 -0.0719021 0.009363713 -0.02605143 -0.03982833 -0.020168342
-0.013311039 -0.019023169 -0.016486235 0.08377476 -0.04674765 0.08585259 -0.019607998 -0.029961836
-0.059583895 -0.02704285 -0.0019823348 -0.071007706 0.039877746 0.03966128 -0.07711631 -0.026444513
0.084181994 -0.019066222 0.0542125 -0.019895999 -0.028133 0.047431808 0.068272755 -0.06431906
0.0137088 -0.005978657 -0.029065678 0.03239371 -0.05429162 0.05080227 0.012406262 0.04643196
0.01799076 0.012485477 -0.05662801 0.049929496 -0.032192446 0.0049895756 -0.087641306 -0.06662634
0.086317345 0.018122828 0.05567842 0.060316786 0.05716655 0.043971363 -0.036137898 0.062547036
0.061090685 0.026918538 -0.03178999 -0.04269151 0.003899658 -0.07825723 -0.074556485 0.08063479
-0.017251262 0.060122278 -0.029513562 0.06117991 0.0596239 0.017592642 0.044654544 -0.07780627
-0.013838032 -0.017429387 0.02081419 0.0060006576 -0.0017944126 0.038014382 0.06848173 -0.075404555
-0.040044446 -0.000700312 -0.067473024 -0.04080872 -0.069184095 -0.041348122 0.06875744 -0.050808594
-0.016054682 0.048454735 -0.04340686 0.035470955 0.011743545 -0.014033014 0.05005464 0.08624539
0.06904599 0.06889916 -0.040739924 -0.06367624 0.058994364 -0.084370285 0.038110085 -0.058838833
0.047667116 0.0024758745 -0.06101283 -0.027718928 0.022668662 -0.011936662 0.06001555 -0.0030434872
0.038475994 -0.012321073 0.048870504 -0.081686504 0.03294815 0.06546576 -0.003746897 -0.011598592
0.0052309297 0.03977476 0.031442054 0.056171518 0.013141693 0.08327525 0.007884295 -0.069950946
0.07189572 0.05145403 0.059444863 0.04882277 0.07606224 0.07424759 0.084446296 -0.054844134
0.015054633 -0.04344925 -0.0026367488 0.05768287 0.03665018 0.068481304 0.030661084 0.042855546
-0.068743855 0.049096536 0.01610727 -0.073246926 0.008638418 -0.082290486 0.04471063 -0.0066772513
0.062352087 0.0045894017 -0.027782548 -0.005994936 0.019911857 0.0067662653 -0.05108103 0.07674424
-0.0751875 -0.07498879 0.06850045 0.08599799 0.075106986 -0.033997238 -0.012831935 -0.035268124
00000000: acec 3b3d e5c7 dabc 053f 0bbb 84ed 1dbd
00000010: 21f3 27bd 1f39 9cbd 598b acbd 6207 c5bc
00000020: 4073 47bd 3eea 873d e631 653d 6fd9 8b3b
00000030: 77bd b4bc eed6 88bd 551b 1ebd 0cff b9bc
00000040: 3d3c acbd e69f 67bd 3a6b 8ebd 7df7 8e3d
00000050: 1c34 b13d 489a 203c 9d10 07bd a29a b2bd
00000060: 2698 6abd e00f 2bbd 4816 8fbd 62ae 1fbd
00000070: dec7 983c 7ba0 3bbd c4cb 05bc 011f aebd
00000080: 4808 533c dff3 b8bb 63f9 7f3d 77a2 7f3c
00000090: a06b 69bd cdf0 1abc c689 b43d 5edd 2d3b
000000a0: b19d 12bd bdd3 873d fc43 673d 1f72 8c3d
000000b0: a169 86bd 8063 993d 6f21 63bc cb76 0bbd
000000c0: ac2b 98bd c66e 8cbd bfb9 a03b d46d 0ebc
000000d0: bf8a 2dbd 1f6a 44bd a028 0fbd 85f3 b7bc
000000e0: 2ee4 583d 51b5 18bd 4355 3dbd b771 063d
000000f0: b700 293d 53f5 b9bc c2a9 abbc e105 82bc
00000100: a122 523d 8155 a6bd 6ea7 d2bc ceb8 a7bd
00000110: 64de 8dbd 6d77 e53b 0e13 eab9 6794 86bd
00000120: f7cf 3e3d 0d48 47bd 4796 7bbd 5ed9 05bd
00000130: 8a25 a53d 6b23 d7bc b1fd 3c3d 2634 203d
00000140: ffb3 603d 837f 48bc 645e 653d bbac 973d
00000150: f7f5 863c 9fe0 49bd f451 83bc 53f5 3d3b
00000160: 719e b1bd 37d3 a43d 6f51 9dbd 6941 93bd
00000170: 426a 193c cf69 d5bc 0823 23bd 1438 a5bc
00000180: 8b16 5abc 7ad6 9bbc 240e 87bc 1a92 ab3d
00000190: 777a 3fbd 7cd3 af3d f4a0 a0bc 8672 f5bc
000001a0: 3e0e 74bd f888 ddbc 0fea 01bb 7d6c 91bd
000001b0: d956 233d de73 223d 28ef 9dbd 2aa2 d8bc
000001c0: 9c67 ac3d c430 9cbc ed0d 5e3d effc a2bc
000001d0: 2d77 e6bc db47 423d 96d2 8b3d b6b9 83bd
000001e0: e09a 603c 9ce8 c3bb 251b eebc 44af 043d
000001f0: e460 5ebd 0b16 503d a243 4b3c 702f 3e3d
00000200: 5c61 933c e38f 4c3c c6f2 67bd df82 4c3d
00000210: 3adc 03bd 987f a33b 497d b3bd 6473 88bd
00000220: 26c7 b03d 5376 943c 0e0f 643d bc0e 773d
00000230: 7927 6a3d 511b 343d 5505 14bd a918 803d
00000240: 3a3a 7a3d 4484 dc3c 3836 02bd 4bdd 2ebd
00000250: 6891 7f3b 5445 a0bd 12b1 98bd da23 a53d
00000260: 8552 8dbc c742 763d 6dc6 f1bc c997 7a3d
00000270: 3138 743d 721e 903c afe7 363d e558 9fbd
00000280: eab8 62bc 13c8 8ebc 8582 aa3c 2aa1 c43b
00000290: 7f32 ebba f8b4 1b3d 2640 8c3d b46d 9abd
000002a0: a505 24bd 2595 37ba 4c2f 8abd 0b27 27bd
000002b0: 64b0 8dbd a65c 29bd b3d0 8c3d ac1c 50bd
000002c0: 1c85 83bc 7978 463d 64cb 31bd fe49 113d
000002d0: ff67 403c baea 65bc 1806 4d3d 6ca1 b03d
000002e0: fc67 8d3d 011b 8d3d e8de 26bd b068 82bd
000002f0: 13a4 713d 54ca acbd 5219 1c3d fd00 71bd
00000300: 983e 433d 4842 223b 97e8 79bd ce12 e3bc
00000310: a1b3 b93c fd91 43bc ded2 753d 3e75 47bb
00000320: 0199 1d3d 53de 49bc 702c 483d 414b a7bd
00000330: a4f4 063d ea12 863d 808e 75bb 0508 3ebc
00000340: 3868 ab3b dcea 223d 62c9 003d 1b14 663d
00000350: 4150 573c 378c aa3d 212d 013c 7142 8fbd
00000360: 103e 933d 76c1 523d 757c 733d 63fa 473d
00000370: 85c6 9b3d 1f0f 983d 2ef2 ac3d 3ea4 60bd
00000380: b5a7 763c d7f7 31bd 4ecd 2cbb e044 6c3d
00000390: 801e 163d ed3f 8c3d f42c fb3c 4c89 2f3d
000003a0: 94c9 8cbd 7319 493d 65f3 833c 7c02 96bd
000003b0: 2788 0d3c ea87 a8bd 7e22 373d d8cc dabb
000003c0: e764 7f3d b162 963b 3a98 e3bc 2b71 c4bb
000003d0: 311e a33c 8cb7 dd3b 583a 51bd 162c 9d3d
000003e0: e7fb 99bd b993 99bd f749 8c3d b71f b03d
000003f0: b1d1 993d b040 0bbd 093d 52bc 4f75 10bd

fc3.bias f4 [64]
-0.013657738 -0.029015744 0.078137845 0.05549955 -0.029501308 -0.06372893 0.0066649653 -0.060359944
-0.04615713 -0.035966422 0.013907944 0.059667557 -0.053799536 0.06766656 -0.08389909 -0.05134863
-0.055901304 -0.06742738 0.0477229 -0.060082175 -0.021945905 0.008361913 -0.085717976 -0.069488354
-0.06691413 -0.0017490836 -0.07695163 0.070063606 0.08580024 0.045716338 0.0719642 0.033453185
-0.016883163 0.0029753884 0.0031525947 0.06226968 0.0067187343 -0.03944647 -0.074008904 0.028968982
-0.026831126 -0.010868081 0.0024373839 0.067981526 0.04378994 0.011047816 -0.039824568 -0.01575938
0.0713773 -0.0049119308 -0.009466393 0.06904773 0.07969841 -0.025668316 -0.01144151 0.05155437
-0.02388249 -0.032256562 -0.0047688736 -0.011681736 -0.028562076 0.08799569 0.03217699 -0.011215877
00000000: b5c4 5fbc 6db2 edbc bc06 a03d 7f53 633d
00000010: baac f1bc 5084 82bd c865 da3b fd3b 77bd
00000020: 420f 3dbd 8751 13bd 25de 633c f865 743d
00000030: e75c 5cbd c494 8a3d 49d3 abbd f152 52bd
00000040: c4f8 64bd 5e17 8abd 1679 433d ba18 76bd
00000050: e6c7 b3bc 6800 093c e88c afbd e94f 8ebd
00000060: 460a 89bd 8241 e5ba d198 9dbd 827d 8f3d
00000070: 09b8 af3d 0e41 3b3d f761 933d 3506 093d
00000080: 8f4e 8abc bcfe 423b c39b 4e3b 7e0e 7f3d
00000090: d428 dc3b 9f92 21bd fb91 97bd 5c50 ed3c
000000a0: f3cc dbbc 0910 32bc 84bc 1f3b e639 8b3d
000000b0: 155d 333d e601 353c 161f 23bd d119 81bc
000000c0: 432e 923d 43f4 a0bb ee18 1bbc e568 8d3d
000000d0: ec38 a33d 5c46 d2bc 2c75 3bbc ad2a 533d
000000e0: 36a5 c3bc 751f 04bd 3644 9cbb c164 3fbc
000000f0: 04fb e9bc 1637 b43d 05cc 033d ccc2 37bc
